models/train/test/tflite/posttraing_quantization/mobilenet_v2_pose_dm05_368_432_weight_quant.tflite (tflite, 632040 bytes, 261 tensors)

MobilenetV2/Conv/Conv2D_bias f4 [16]
-5.435021 -0.15179786 2.129643 0.070468634 5.0731773 -1.3958105 4.121023 4.4307027
2.490543 -0.26240468 3.710932 1.6436411 -7.7055736 2.57902 2.29305 0.8388233
00000000: b1eb adc0 e670 1bbe 124c 0840 dc51 903d
00000010: 7857 a240 eba9 b2bf 6cdf 8340 51c8 8d40
00000020: 0e65 1f40 e859 86be e97f 6d40 d562 d23f
00000030: 0f94 f6c0 aa0e 2540 55c1 1240 20bd 563f

MobilenetV2/Conv/weights f4 [16, 3, 3, 3]
0.010337438 -0.014250423 0.00014560763 0.004675607 -0.002174871 -0.0015704836 0.010006385 -0.0064180978
0.0031748258 -0.006512215 -0.014140468 -0.017165111 -0.0016927818 -0.0064914846 -0.008357189 0.011490559
-0.00939177 0.001974081 0.007258646 -0.008496525 0.0036109157 0.008691861 -0.008034354 0.0014066785
0.007504612 -0.008641741 0.0039943424 -3.0411834e-21 -1.8920813e-20 1.2287376e-21 -1.8130324e-20 -2.5524269e-20
-7.362542e-21 -1.5363127e-20 -2.510352e-20 -9.5922925e-21 -8.111337e-21 -2.3590336e-20 -7.479602e-21 -3.1450764e-21
-1.7347325e-20 -1.8581918e-21 -4.063779e-21 -1.523745e-20 -3.1700304e-21 -8.3244105e-21 -2.10627e-20 -1.7146394e-22
-5.49672e-21 -2.1794333e-20 -3.893764e-21 -1.5147957e-21 -1.790504e-20 -4.0417454e-21 0.005537495 0.004907942
-0.00051172654 -0.0014666462 1.7304907e-05 0.0072062965 -0.023050806 -0.037781913 -0.007368175 -0.00047903278
-0.0041992306 0.001113881 -0.0004567786 0.00017628603 0.0015999743 0.0032380333 -0.006536595 0.0021206164
-0.0010713303 -0.0017574636 0.0018273994 0.000828589 -0.0034176118 -0.00030077613 0.008187392 0.0051117353
-0.0032375276 -9.6631764e-21 -1.6722435e-20 -1.2903868e-20 -1.6229814e-20 -1.7407197e-20 -2.1143106e-20 -4.4913722e-21
-9.2570614e-21 -1.2615025e-20 -1.5315871e-20 -2.4347972e-20 -2.3221065e-20 -1.5098507e-20 -2.4163976e-20 -2.955891e-20
-4.5445e-22 -6.1119564e-21 -1.2779486e-20 -8.2503035e-21 -1.8281247e-20 -1.8946317e-20 -1.7396065e-20 -2.4972857e-20
-3.077907e-20 -8.34562e-21 -1.6496498e-20 -2.4006274e-20 -6.709641e-06 -0.0023369992 0.000383092 -0.0007309048
-0.00357852 -0.0009995941 0.0006469005 -0.0009515192 0.00010608282 0.00033235515 -0.0009969611 0.00017488892
-0.0014711623 -0.0042975545 -0.0016520323 -0.0005189892 -0.001906181 -0.0005242246 0.000483319 -0.001084368
0.00016243636 1.6141843e-05 -0.0001586486 0.00015348148 0.00025009923 -0.0006344325 0.0005723359 -6.1977835e-22
2.0751429e-22 7.5430355e-22 -7.346707e-23 3.3935726e-22 9.839812e-22 -3.7056624e-22 -3.6186226e-22 2.8889944e-22
-7.7761617e-22 -6.3835755e-22 2.966965e-22 -1.0176786e-21 -6.7301225e-22 -1.1505092e-22 -4.995984e-22 -3.9520296e-22
3.577724e-22 -1.142645e-21 -1.1110223e-21 -4.44328e-22 -8.0441573e-22 -4.5391087e-22 9.630783e-23 -1.155913e-23
-6.979303e-23 8.68053e-22 0.00226861 0.0014060582 0.0004138803 0.00052365486 -0.0004381811 -0.0007091649
-0.0005849874 -0.00078091485 -0.00018463859 0.0025113395 0.0017338682 0.00037598764 0.0013694671 0.0007019257
-0.00067304756 0.0007792027 0.0007442359 -0.00012209645 -0.0009982497 -0.00050780986 -0.00018109173 -0.00014908826
0.00012414799 -0.00016634948 0.0002587833 0.0004666551 -4.620758e-05 0.0005630983 0.0017362372 0.00046886946
-0.0025745672 -0.0057099643 -0.0011687934 0.0002729796 0.0019299407 0.0009962709 0.0016278246 0.003459481
0.0011760115 -0.0046166703 -0.010050428 -0.0039219796 0.0017395125 0.0037858228 0.0021459404 0.00041652744
0.0013906702 0.0007284406 -0.0017886374 -0.0032156901 -0.0015616997 4.2907486e-05 0.000933496 0.00044287418
0.0012384536 0.0024704402 0.001977384 0.006917132 0.0128443 0.0036918605 0.0047004917 0.008342394
0.0033685071 0.0029201384 0.003924284 0.001306103 0.007430046 0.011809382 0.0036156424 0.005516413
0.008854519 0.0030800125 -0.0042262576 -0.005536971 -0.0034794 -0.014530878 -0.024292931 -0.0078006606
-0.010585765 -0.017004754 -0.006222925 -1.0332397e-20 3.4126265e-21 -1.19643695e-20 -1.0526565e-20 1.9550226e-21
-1.3717837e-20 -5.312975e-21 1.1623424e-20 -7.617307e-21 -1.2998215e-20 2.8561694e-21 -1.7256474e-20 -1.8304534e-20
00000000: 5c5e 293c 9b7a 69bc 40ae 1839 d635 993b
00000010: 4888 0ebb afd8 cdba d2f1 233c e84e d2bb
00000020: bd10 503b 6b64 d5bb 6cad 67bc d99d 8cbc
00000030: 55e0 ddba 85b6 d4bb 97ec 08bc e642 3c3c
00000040: f0df 19bc 955f 013b f0d9 ed3b 0235 0bbc
00000050: 1da5 6c3b 4f68 0e3c 86a2 03bc 4c60 b83a
00000060: 40e9 f53b 1796 0dbc f9e2 823b 0bc9 659d
00000070: b8b3 b29e 7cae b91c 6f3c ab9e e511 f19e
00000080: 1213 0b9e c319 919e 9618 ed9e 7b31 359e
00000090: 0538 199e efcd de9e 2349 0d9e a0a2 6d9d
000000a0: 42d7 a39e a866 0c9d 7586 999d e5e9 8f9e
000000b0: 4e85 6f9d 613e 1d9e 7cee c69e 8549 4f9b
000000c0: 04a9 cf9d 77d7 cd9e 2d1a 939d d2e8 e49c
000000d0: bb1b a99e 5db1 989d e073 b53b cdd2 a03b
000000e0: 6325 06ba 7b3c c0ba 012a 9137 cc22 ec3b
000000f0: 0bd5 bcbc 35c1 1abd bb70 f1bb b126 fbb9
00000100: b399 89bb a5ff 913a c97b efb9 6cd9 3839
00000110: 3bb6 d13a 2f35 543b ef30 d6bb 0afa 0a3b
00000120: e16b 8cba b15a e6ba 5985 ef3a ab35 593a
00000130: 03fa 5fbb 7db1 9db9 6924 063c 5880 a73b
00000140: b32c 54bb 4188 369e 5ef0 9d9e 47bf 739e
00000150: 4849 999e 0568 a49e e5b0 c79e e3ad a99d
00000160: 67dc 2e9e 854a 6e9e 81a7 909e c9f5 e59e
00000170: 1751 db9e f399 8e9e e938 e49e 8896 0b9f
00000180: 5e59 099c 37e7 e69d cd65 719e 05d8 1b9e
00000190: 58a9 ac9e 62f1 b29e 1b4d a49e aadc eb9e
000001a0: 9d59 119f f1a4 1d9e 16ce 9b9e 9cbb e29e
000001b0: 6123 e1b6 5728 19bb bdd9 c839 319a 3fba
000001c0: 9a85 6abb d004 83ba c294 293a 5f6f 79ba
000001d0: c878 de38 f43f ae39 77ac 82ba 6362 3739
000001e0: 04d4 c0ba 80d2 8cbb 0189 d8ba c70c 08ba
000001f0: d2d8 f9ba 1e6c 09ba fa65 fd39 5a21 8eba
00000200: ae53 2a39 5868 8737 e95a 26b9 dfef 2039
00000210: c01f 8339 0b50 26ba d008 163a 0751 3b9c
00000220: 90de 7a1b 69f9 631c eaa1 b19a fe20 cd1b
00000230: eeb1 941c 59fe df9b 79bb da9b 06a1 ae1b
00000240: 2305 6b9c 86ee 409c 8f57 b31b 89c9 999c
00000250: cd67 4b9c 8916 0b9b 8efe 169c b2e2 ee9b
00000260: 9942 d81b f0ab ac9c 98e4 a79c 374a 069c
00000270: a71e 739c a72f 099c a9db e81a 0a96 5f99
00000280: cbbf a89a 2d2d 831c f6ac 143b 7c4b b83a
00000290: 13fe d839 e245 093a acbb e5b9 40e7 39ba
000002a0: d759 19ba 4fb6 4cba 8b9b 41b9 4995 243b
000002b0: f642 e33a 3520 c539 b17f b33a 7001 383a
000002c0: 756f 30ba 6843 4c3a d318 433a 0407 00b9
000002d0: b4d7 82ba 8b1e 05ba 71e3 3db9 9354 1cb9
000002e0: b92d 0239 196e 2eb9 4ead 8739 63a9 f439
000002f0: 03cf 41b8 e39c 133a 7492 e33a 98d2 f539
00000300: 12ba 28bb a71a bbbb 3332 99ba b41e 8f39
00000310: 10f6 fc3a 4e95 823a bb5c d53a 76b8 623b
00000320: 6624 9a3a 7047 97bb 8daa 24bc f383 80bb
00000330: 5b00 e43a 911b 783b e8a2 0c3b 5e61 da39
00000340: 2647 b63a d2f4 3e3a b670 eaba 54be 52bb
00000350: f2b1 ccba 90f7 3338 dbb5 743a 9131 e839
00000360: 9b53 a23a 1ce7 213b 0097 013b 1ca9 e23b
00000370: e670 523c 24f3 713b 9506 9a3b 89ae 083c
00000380: 2cc2 5c3b cb5f 3f3b 4897 803b 8b31 ab3a
00000390: be77 f33b 237c 413c 6af4 6c3b 07c3 b43b
000003a0: 8b12 113c 09da 493b 6b7c 8abb 7b6f b5bb
000003b0: a506 64bb eb12 6ebc f801 c7bc af9c ffbb
000003c0: eb6f 2dbc 8e4d 8bbc aee9 cbbb 682c 439e
000003d0: e6ec 801d 2400 629e 58d7 469e a3b7 131d
000003e0: b28f 819e f1b7 c89d 6e8f 5b1e 09e3 0f9e
000003f0: 8387 759e 5ace 571d 98fb a29e a6e1 ac9e

MobilenetV2/expanded_conv/depthwise/depthwise_bias f4 [16]
4.313045 -0.51919407 1.3491564 -2.1519516 2.3001182 0.5903135 4.0327272 4.544173
5.2885294 -1.1315641 -0.45981264 2.4543655 -0.21548486 2.2379456 0.92646617 1.9653628
00000000: 7704 8a40 e7e9 04bf 28b1 ac3f 93b9 09c0
00000010: 2335 1340 c91e 173f 1a0c 8140 dd69 9140
00000020: a23b a940 18d7 90bf 906c ebbe 5314 1d40
00000030: 10a8 5cbe 803a 0f40 e32c 6d3f 0291 fb3f

MobilenetV2/expanded_conv/depthwise/depthwise_weights f4 [1, 3, 3, 16]
-0.05859187 -3.1300657 -0.34457064 1.7804786 -0.43800685 -3.9807692 -1.0269082 -0.16814545
0.056783915 1.6038058 0.27434593 -0.21852079 0.26797423 0.048189197 0.25521266 0.16941181
0.014729339 -12.136295 -0.016713984 -0.9925286 -0.059559498 -11.1802225 -0.31115586 0.07033895
-0.1124939 3.1545281 1.4098644 0.33315486 0.28001782 -0.27218807 0.44715062 0.038224135
0.09448801 -18.362257 -0.06460051 0.69725996 0.12265036 -6.3166547 0.0933806 0.31261778
0.058669347 2.9732218 -1.6093503 0.14586085 -0.395699 0.029134307 -0.6033301 -0.39177948
-0.009001074 0.21751186 0.9176283 0.6319375 1.0918962 -13.101014 0.3893665 0.7065029
0.29217842 6.8523827 1.1212146 3.563626 0.9904349 -0.16462748 0.645466 0.617225
-0.4317694 -17.777737 -0.022965629 0.5844526 0.2764837 -13.933811 1.6933604 1.8627856
-1.3640763 5.227596 1.7602035 -3.8076434 0.39760968 1.0030227 0.58130527 1.2322826
0.041079685 -3.4992542 -0.101938784 -2.2024462 -0.53483707 -1.1527964 -1.2601311 -2.9177763
0.21077989 -0.7897141 -0.44626093 -0.20186037 -0.25665754 -0.10919676 -0.26104248 -0.4397538
0.0774032 -4.8943734 0.0084799165 1.5123119 -0.34585282 2.6236844 -1.3072666 -0.24037527
-0.008173585 1.5088232 -1.453411 -0.4445781 -0.5442823 -0.12720409 -0.73818415 -0.6092248
0.11506815 -1.8015233 -0.085241154 11.731756 0.002791204 -5.510067 0.889565 -0.04297157
0.113089174 -1.4404823 -0.55942106 0.45320442 -0.18498038 0.25266755 -0.20294043 -0.38026288
0.09676887 -18.512262 -0.08028491 9.725651 0.08815269 -14.716813 -0.73979634 0.38033068
0.0015944245 0.5369014 0.109668985 0.115322225 -0.059646863 -0.09801509 0.1512938 -0.14522527
00000000: 07fe 6fbd ff52 48c0 906b b0be b9e6 e33f
00000010: 6f42 e0be ecc4 7ec0 ba71 83bf 522e 2cbe
00000020: 4096 683d 8249 cd3f 1277 8c3e eac3 5fbe
00000030: eb33 893e 0962 453d 3cab 823e 4a7a 2d3e
00000040: 5353 713c 442e 42c1 c4eb 88bc 5b16 7ebf
00000050: a9f4 73bd 31e2 32c1 d24f 9fbe de0d 903d
00000060: 3463 e6bd cae3 4940 7076 b43f 4693 aa3e
00000070: 7f5e 8f3e 3c5c 8bbe edf0 e43e e990 1c3d
00000080: ee82 c13d e7e5 92c1 464d 84bd a17f 323f
00000090: 1d30 fb3d 0922 cac0 543e bf3d 700f a03e
000000a0: 454f 703d 4449 3e40 31ff cdbf 8c5c 153e
000000b0: 0f99 cabe 12ab ee3c d773 1abf 5297 c8be
000000c0: 3e79 13bc 6ebb 5e3e b0e9 6a3f a8c6 213f
000000d0: 41c3 8b3f c19d 51c1 0c5b c73e 60dd 343f
000000e0: 6998 953e b846 db40 f683 8f3f 7312 6440
000000f0: 248d 7d3f 1b94 28be 433d 253f 7502 1e3f
00000100: e110 ddbe ce38 8ec1 6a22 bcbc b09e 153f
00000110: 468f 8d3e e4f0 5ec1 09c0 d83f c26f ee3f
00000120: 0d9a aebf 7748 a740 594e e13f 6eb0 73c0
00000130: 7f93 cb3e 0c63 803f 6cd0 143f 70bb 9d3f
00000140: 2c43 283d c8f3 5fc0 48c5 d0bd e1f4 0cc0
00000150: 15eb 08bf d58e 93bf fa4b a1bf d9bc 3ac0
00000160: afd6 573e b42a 4abf 507c e4be 7cb4 4ebe
00000170: 9e68 83be 8da2 dfbd 5ca7 85be 6927 e1be
00000180: 9285 9e3d b59e 9cc0 59ef 0a3c 7093 c13f
00000190: 9f13 b1be 72ea 2740 8354 a7bf ef24 76be
000001a0: 80ea 05bc 1e21 c13f 5f09 babf be9f e3be
000001b0: 1656 0bbf ca41 02be a3f9 3cbf 28f6 1bbf
000001c0: daa8 eb3d 5198 e6bf ea92 aebd 46b5 3b41
000001d0: a2ec 363b 7852 b0c0 88ba 633f f502 30bd
000001e0: 4c9b e73d b961 b8bf 3836 0fbf 690a e83e
000001f0: 7f6b 3dbe a45d 813e 9ecf 4fbe d1b1 c2be
00000200: c22e c63d 1d19 94c1 6a6c a4bd 449c 1b41
00000210: 6689 b43d 1178 6bc1 4b63 3dbf b4ba c23e
00000220: 02fc d03a 5f72 093f 229a e03d 0f2e ec3d
00000230: 4550 74bd 23bc c8bd c3ec 1a3e efb5 14be

MobilenetV2/expanded_conv/project/Conv2D_bias f4 [8]
-2.2361774 1.2330805 -12.659107 -54.07862 59.728844 -9.71066 -22.892054 -22.041962
00000000: 881d 0fc0 95d5 9d3f b48b 4ac1 8250 58c2
00000010: 56ea 6e42 dd5e 1bc1 ed22 b7c1 f055 b0c1

MobilenetV2/expanded_conv/project/weights f4 [8, 1, 1, 16]
-2.1542728 3.0902072e-22 1.8791684 1.6660111e-21 -0.030069683 -0.27968726 -2.1086807 1.5867292
0.5558365 1.119644e-20 5.9023285 -2.7159784 1.6339335 -0.8736025 -1.9154079 1.2666464
0.9770379 1.24002e-22 -2.7790523 -1.4574943e-21 -1.3977879 -0.42809996 2.2524328 -1.3969755
-0.73340064 1.24727786e-20 4.622242 1.8218967 -1.928073 0.62095296 -0.7748912 -0.9162284
0.72769165 2.0151911e-22 -0.64728403 2.1663493e-21 -0.32092935 0.008685227 0.07311295 2.4067152
0.17710786 -1.6778691e-20 0.55519533 -4.0485787 -1.0150553 -0.44853124 6.286793 -0.025714014
-0.40409437 7.596344e-22 -0.3232399 6.4460073e-21 -0.9757552 -0.40891665 -0.9989666 0.24823748
7.12446 -2.9694194e-20 -0.014616343 -0.02591588 -0.23941612 9.029713 0.038645383 0.67325217
-0.12910926 7.317723e-22 -0.17411377 6.0879487e-21 0.7785688 0.16421232 -4.7483764 -10.740354
-0.09244903 4.8032706e-21 0.40839645 -6.5976505 -0.3556552 0.6915489 -0.16850483 -0.72930247
-0.19893381 -1.3035788e-21 1.3045931 -1.2034126e-22 -0.61659664 0.38295776 -0.8147549 -2.3141694
0.053086437 7.106617e-21 1.316468 3.530425 1.0852531 -0.10346256 5.9676814 0.34521884
0.0035640898 -1.5516245e-21 -0.148713 -5.4019446e-21 5.9133687 -0.45697102 -1.1566665 0.19035059
0.29261708 -3.9120364e-21 1.2809072 -0.48628607 -0.32415968 0.2901757 0.7071531 0.2968171
0.6229662 -8.671124e-22 0.40894923 -5.0127645e-22 0.25068828 -0.1478743 -1.7325598 0.828552
-3.6945443 1.8178426e-20 0.31119123 -0.38842288 0.65126675 7.337582 -0.026428604 0.16114798
00000000: 9bdf 09c0 a4ca ba1b 9788 f03f afc2 fb1c
00000010: b254 f6bc 2b33 8fbe a0f4 06c0 f119 cb3f
00000020: 4d4b 0e3f a97e 531e e0df bc40 97d2 2dc0
00000030: bc24 d13f 6aa4 5fbf 162c f5bf 7821 a23f
00000040: 281f 7a3f c3e8 151b fedb 31c0 1440 dc9c
00000050: b7ea b2bf eb2f dbbe dc27 1040 18d0 b2bf
00000060: 25c0 3bbf a89a 6b1e 68e9 9340 e933 e93f
00000070: 19cb f6bf c6f6 1e3f 455f 46bf f28d 6abf
00000080: 004a 3a3f 259f 731b 68b4 25bf 4aaf 231d
00000090: da50 a4be 7b4c 0e3c 3ebc 953d 9f07 1a40
000000a0: c35b 353e 6378 9e9e 4821 0e3f f58d 81c0
000000b0: 55ed 81bf e3a5 e5be 692d c940 32a6 d2bc
000000c0: 75e5 cebe dd95 651c b37f a5be f585 f31d
000000d0: 18cb 79bf 865d d1be 46bc 7fbf f731 7e3e
000000e0: 94fb e340 143a 0c9f 6379 6fbc 8a4d d4bc
000000f0: 8029 75be b479 1041 9f4a 1e3d 415a 2c3f
00000100: 3835 04be 242a 5d1c e14a 32be 07ff e51d
00000110: 4950 473f 4627 283e b3f2 97c0 7dd8 2bc1
00000120: eb55 bdbd 6276 b51d 5719 d13e f41f d3c0
00000130: 7018 b6be 5909 313f 888c 2cbe 91b3 3abf
00000140: 4eb5 4bbe c3fd c49c e8fc a63f d17b 119b
00000150: 47d9 1dbf 0a13 c43e c793 50bf 5a1b 14c0
00000160: 2a71 593d 7e3d 061e 0682 a83f 7cf2 6140
00000170: 93e9 8a3f 2ee4 d3bd 3ff7 be40 86c0 b03e
00000180: 8193 693b 9179 ea9c 3848 18be 6714 cc9d
00000190: 513a bd40 1bf8 e9be a60d 94bf 44eb 423e
000001a0: e8d1 953e e5ca 939d c4f4 a33f 7dfa f8be
000001b0: 42f8 a5be e991 943e fc07 353f 69f8 973e
000001c0: b67a 1f3f c908 839c cb61 d13e 6380 179c
000001d0: 375a 803e 5c6c 17be 85c4 ddbf fc1b 543f
000001e0: 6a73 6cc0 bdb0 ab1e 7554 9f3e 5ddf c6be
000001f0: 6bb9 263f 79cd ea40 cd80 d8bc fa03 253e

MobilenetV2/expanded_conv_1/depthwise/depthwise_bias f4 [48]
4.047489 -0.06456877 1.9666951 0.99183905 4.284315 -0.11548984 -0.1510441 1.3529768
-0.040900826 5.226489e-05 0.058196913 0.6654855 -1.3723617 1.4142337 -2.8643425 1.1507043
0.030526467 0.27084917 5.626271 -1.6875062 0.87508833 1.3838954 1.3475753 0.24981374
0.54700387 4.822482 0.23973966 6.858115 -0.15910813 0.94890374 1.7430876 -0.14768103
1.6386366 -4.845427 1.5270439 0.16244504 4.768519 0.5542243 1.3456845 1.0966902
0.20276165 -0.60485417 0.17639309 0.061658636 0.012441186 0.18758854 0.5306064 0.12094331
00000000: 0885 8140 a23c 84bd aabc fb3f 2ae9 7d3f
00000010: 1c19 8940 f085 ecbd 4eab 1abe 582e ad3f
00000020: a087 27bd 0037 5b38 e35f 6e3d 425d 2a3f
00000030: 8ca9 afbf 9c05 b53f 6351 37c0 474a 933f
00000040: a412 fa3c beac 8a3e 690a b440 3400 d8bf
00000050: ca05 603f 7c23 b13f 597d ac3f 2ccf 7f3e
00000060: 7208 0c3f c651 9a40 507e 753e ae75 db40
00000070: 3eed 22be 5beb 723f 7f1d df3f b239 17be
00000080: d8be d13f bd0d 9bc0 2d76 c33f fe57 263e
00000090: b597 9840 a5e1 0d3f 643f ac3f 5860 8c3f
000000a0: c0a0 4f3e b9d7 1abf 64a0 343e c48d 7c3d
000000b0: 1ed6 4b3c 3617 403e d2d5 073f 20b1 f73d

MobilenetV2/expanded_conv_1/depthwise/depthwise_weights f4 [1, 3, 3, 48]
-1.7204236 0.123638384 -0.07022775 -0.07771198 -0.1135876 -0.6841592 0.052778695 -0.17155556
0.14629103 0.23599863 -0.15720256 0.10263819 0.00361075 -0.023735482 0.01368078 -0.05028659
-0.06647937 0.31559885 -0.17776646 0.041026566 -0.29827452 0.14578983 -0.09698445 0.28487286
0.17632839 -0.30083546 0.17597008 -0.051309515 -0.03102515 0.13069814 -0.03705811 0.13574505
0.17385422 0.066471666 -0.09037663 0.17524375 -0.15258674 0.04523222 -0.01258178 -0.109472156
0.06248345 -0.0608658 0.15677267 -0.095398866 0.081443965 0.22410364 -0.25578323 0.027961196
-0.5048299 0.3925746 -0.063062064 -0.12871896 -0.19204526 0.30889276 -0.21614875 -0.20757164
0.20025286 0.43840432 0.22397149 -0.18918909 0.3246446 -0.079329945 0.030487731 -0.12882021
0.02235792 0.34658217 -0.2713861 0.096318245 -0.27363077 0.07309728 -0.21587272 0.3673963
0.007898817 -0.32274088 0.18646862 -0.12409996 -0.08262462 0.19086309 -0.114159726 -0.09293112
0.32099086 0.17091633 -0.1310521 0.21472014 -0.23924318 -0.1512247 -0.032612614 -0.1601737
0.25177714 -0.9661034 0.26792517 -0.16770416 0.17828989 0.29103172 0.21385767 0.053197205
1.7869822 0.33096868 -0.0119111035 -0.063732915 -0.09250095 0.41407928 0.19214712 -0.042634267
0.20606165 0.2575081 -0.053974945 -0.039664395 0.24658126 -0.0789738 -0.019398764 -0.10218295
0.18509611 0.014251619 -0.13774797 0.08583662 -0.16314046 -0.018591447 -0.09484155 0.16111104
-0.27544066 -0.07096389 0.07923328 -0.12081295 -0.07272041 0.16021512 -0.09661117 -0.04320839
0.13754281 0.14456658 -0.06981258 0.09197613 -0.1027147 0.0457004 0.0049314536 -0.07324646
0.22374979 0.23188184 0.19833574 -0.096269086 0.044854436 0.11412911 -0.86111957 0.06396011
-0.2867521 -0.068513274 -0.09441983 -0.12200063 -0.13157593 0.54311746 0.04837798 -0.33639526
0.19432867 -0.2693077 -0.30470118 0.19274953 0.030848924 -0.062516816 0.2548547 -0.102418855
0.014705413 0.40381476 -0.23618843 0.07978664 -0.4040184 0.18580574 -0.089012206 0.32201988
0.31636018 -0.50356126 0.21997121 -0.11470338 -0.19477351 0.225049 -0.05335597 0.22413124
-0.13629235 0.1480296 -0.115536846 0.29358962 -0.18678331 0.058119297 -0.10968178 -0.08659167
0.057342146 -0.691905 0.2614384 0.0725375 -0.3680268 0.26212355 -0.45662096 0.059251506
-0.05816053 -0.11221173 -0.10228437 -0.16456725 -0.2645303 0.6014514 -0.33819988 -0.35022274
0.57102895 -0.5274746 0.33808374 -0.2661837 0.5948999 -0.14783429 0.40956035 -0.20912923
-0.2655724 0.4567209 -0.34863394 0.32099777 -0.39494348 0.10726004 -0.118538514 0.5599303
0.034118082 -0.53743386 0.26857576 -0.22793032 -0.29329795 0.31374305 -0.177036 -0.13141388
-0.16550003 0.31218484 -0.17957757 0.40155837 -0.32505015 -0.25417688 -0.16318402 -0.13133745
0.27440915 0.67946243 0.45595855 0.13599993 -0.4700661 0.37352216 0.13817222 0.14125185
-0.08865361 -0.07977905 -0.011104996 -0.11154619 -0.123024 -0.453037 0.30697566 -0.07784799
0.31891593 -0.3585978 -0.08197373 -0.11214375 0.39094985 -0.10500264 0.21151154 -0.10732358
00000000: d736 dcbf 1f36 fd3d 91d3 8fbd 7527 9fbd
00000010: 9ea0 e8bd 0f25 2fbf 792e 583d 43ac 2fbe
00000020: 51cd 153e a0a9 713e b5f9 20be f933 d23d
00000030: 55a2 6c3b ea70 c2bc 5a25 603c 50f9 4dbd
00000040: 5626 88bd 2c96 a13e 6908 36be 790b 283d
00000050: 70b7 98be ee49 153e c99f c6bd dbda 913e
00000060: 6e8f 343e 1b07 9abe 8031 343e ed29 52bd
00000070: 7528 febc bcd5 053e 3fca 17bd c000 0b3e
00000080: d706 323e 4c22 883d 6217 b9bd 1973 333e
00000090: b33f 1cbe 6c45 393d cf23 4ebc f032 e0bd
000000a0: a5ee 7f3d 6b4e 79bd 0489 203e 7b60 c3bd
000000b0: 18cc a63d 6d7b 653e 05f6 82be e10e e53c
000000c0: 883c 01bf 8aff c83e af26 81bd e7ce 03be
000000d0: 83a7 44be 3127 9e3e 1956 5dbe a98d 54be
000000e0: 160f 4d3e 8876 e03e c858 653e c9ba 41be
000000f0: d137 a63e bd77 a2bd 68c1 f93c 72e9 03be
00000100: f527 b73c 3873 b13e 1ef3 8abe 8042 c53d
00000110: 5519 8cbe 07b4 953d bd0d 5dbe 5e1b bc3e
00000120: 0a6a 013c 4b3e a5be a1f1 3e3e 1f28 febd
00000130: 1937 a9bd 9d71 433e 93cc e9bd ac52 bebd
00000140: ea58 a43e b104 2f3e 8632 06be 99df 5b3e
00000150: 2afc 74be a6da 1abe ce94 05bd 9304 24be
00000160: efe8 803e 8d52 77bf 7d2d 893e a4ba 2bbe
00000170: a091 363e 1c02 953e 81fd 5a3e 50e5 593d
00000180: d5bb e43f ba74 a93e ca26 43bc 6786 82bd
00000190: 2371 bdbd 3302 d43e 37c2 443e 45a1 2ebd
000001a0: d301 533e 1ad8 833e d514 5dbd 2277 22bd
000001b0: cc7f 7c3e 04bd a1bd 28ea 9ebc 4b45 d1bd
000001c0: d689 3d3e 9f7f 693c ce0d 0dbe 1ccb af3d
000001d0: 4b0e 27be 174d 98bc 493c c2bd 4bfa 243e
000001e0: 8f06 8dbe 8455 91bd 0f45 a23d c86c f7bd
000001f0: 70ee 94bd 6f0f 243e 14dc c5bd 48fb 30bd
00000200: 06d8 0c3e 4309 143e e6f9 8ebd fb5d bc3d
00000210: 165c d2bd 5830 3b3d 0898 a13b 3d02 96bd
00000220: aa1e 653e 6f72 6d3e 8618 4b3e ba28 c5bd
00000230: 49b9 373d 86bc e93d 5572 5cbf 85fd 823d
00000240: 2cd1 92be b050 8cbd 2f5f c1bd 77db f9bd
00000250: d7bb 06be bf09 0b3f fd27 463d 003c acbe
00000260: 18fe 463e b3e2 89be cb01 9cbe 2260 453e
00000270: e2b6 fc3c d108 80bd 517c 823e fac0 d1bd
00000280: f9ee 703c cfc0 ce3e 61db 71be 2e67 a33d
00000290: 80db cebe dc43 3e3e 084c b6bd cadf a43e
000002a0: f6f9 a13e 64e9 00bf 2240 613e 9be9 eabd
000002b0: b572 47be 3f73 663e ca8b 5abd a982 653e
000002c0: 3990 0bbe 1295 173e 959e ecbd 6151 963e
000002d0: 2044 3fbe 800e 6e3d d7a0 e0bd f956 b1bd
000002e0: 99df 6a3d b020 31bf 41db 853e 8a8e 943d
000002f0: 026e bcbe 0f35 863e 39ca e9be b5b1 723d
00000300: bc39 6ebd 43cf e5bd 787a d1bd 5184 28be
00000310: 8470 87be b8f8 193f 8928 adbe 6550 b3be
00000320: f42e 123f 9308 07bf 5019 ad3e 3b49 88be
00000330: 5c4b 183f df61 17be e5b1 d13e f925 56be
00000340: 1bf9 87be 52d7 e93e 2680 b2be d259 a43e
00000350: 0836 cabe 27ab db3d 52c4 f2bd 9857 0f3f
00000360: 67bf 0b3d 4495 09bf c382 893e 9166 69be
00000370: 262b 96be eea2 a03e ed48 35be 5c91 06be
00000380: d778 29be b1d6 9f3e 2fe3 37be 0f99 cd3e
00000390: f96c a6be 7923 82be b619 27be 537d 06be
000003a0: 5b7f 8c3e 40f1 2d3f 6673 e93e 9143 0b3e
000003b0: 81ac f0be 4c3e bf3e 057d 0d3e 53a4 103e
000003c0: 0690 b5bd 3363 a3bd bbf1 35bc 5472 e4bd
000003d0: 02f4 fbbd 77f4 e7be ea2b 9d3e c46e 9fbd
000003e0: f348 a33e 219a b7be d8e1 a7bd 9fab e5bd
000003f0: 942a c83e a00b d7bd 7b96 583e 77cc dbbd

MobilenetV2/expanded_conv_1/expand/Conv2D_bias f4 [48]
2.784738 1.7337545 0.6444804 -0.028365687 0.057007316 0.94664454 2.4733217 0.22373185
0.2714035 1.6346437 2.53447 1.1768777 2.2563536 0.17818883 3.2247005 0.26134163
2.492238 -0.03811713 0.021337496 5.6750555 0.19673082 -0.025616469 -0.06327686 0.102128536
0.8392171 2.130915 0.0062822606 1.4233066 1.858309 -0.36722702 1.2448153 2.708377
1.0477142 4.132254 0.40776122 0.015801948 -0.05694999 2.1502907 0.40874508 0.66321135
-0.19742177 2.30319 0.025894905 3.474855 4.339591 0.08500929 -0.11990834 -0.016093029
00000000: 2639 3240 abeb dd3f abfc 243f 285f e8bc
00000010: 8180 693d 4c57 723f e74a 1e40 f619 653e
00000020: 66f5 8a3e 013c d13f c234 2240 eea3 963f
00000030: 1968 1040 2277 363e 7e61 4e40 92ce 853e
00000040: d480 1f40 b520 1cbd f9cb ae3c 0e9a b540
00000050: ce73 493e a1d9 d1bc 4c97 81bd c428 d13d
00000060: efd6 563f e960 0840 6cdb cd3b e92e b63f
00000070: 12dd ed3f 2e05 bcbe 1c56 9f3f 0c56 2d40
00000080: 801b 863f 6d3b 8440 14c6 d03e 1673 813c
00000090: 6544 69bd 5d9e 0940 0947 d13e 38c8 293f
000000a0: ef28 4abe 7767 1340 8d21 d43c 0664 5e40
000000b0: eedd 8a40 5a19 ae3d 8192 f5bd 87d5 83bc

MobilenetV2/expanded_conv_1/expand/weights f4 [48, 1, 1, 8]
-0.0082370555 0.014765867 0.09392812 1.4062894e-05 -0.0020284562 0.09381789 0.010389016 0.0059744436
0.053966463 -0.03289803 0.03169282 0.09378869 0.022092992 0.2226044 0.39875454 0.0080159
-0.16866602 0.19764294 -0.3931558 -0.087896094 0.30350813 0.44726136 -0.108616516 -0.012208032
-0.030121807 -0.022449916 0.14616606 -1.001283 -0.010229999 0.15078036 0.05814955 -0.79203486
-0.04886404 0.034356944 -0.049422964 -0.022500029 -0.36440063 0.06796975 0.04274294 0.018489279
-0.05406817 0.023709837 -0.03851951 0.0008555581 -0.0007726224 -0.046506867 -0.111030325 0.037141025
0.24471927 -0.26249555 0.22792527 0.012272075 0.09582117 -0.026080927 -0.3486189 0.023664199
0.2570242 -0.3010162 0.64309114 0.09097908 -0.39028192 -0.6225032 0.20689812 0.061851315
-0.030620364 0.010885765 0.08298223 0.0027907402 -0.0011685609 0.06836014 0.0081709055 0.0005114513
-0.0718933 0.07638698 0.029220259 -0.07999009 -0.0015338699 -0.12606667 -0.17516592 0.07208608
0.2424492 -0.23950309 0.18847857 0.017043663 0.07558159 -0.05003909 -0.36589396 0.020938281
-0.10613567 0.1219167 -0.11790124 0.025222184 0.109466985 0.004002455 0.045536157 -0.085138895
0.0017614384 0.05657984 0.034167595 0.0070567173 -0.0041561453 -0.014428972 -0.13986343 -0.0011173196
0.37260038 -0.36912912 0.47311813 0.026012894 0.30182165 -0.32136673 0.112362646 -0.14628974
-0.03729334 -0.038999256 0.0026559231 0.31185445 0.038182154 -0.03617843 0.017040804 0.14282924
0.1403303 -0.1740569 0.2866556 -0.22388019 0.15210181 -0.3207369 0.12857392 0.5985301
0.022401262 0.06414955 0.021762824 0.011688261 -0.02305473 0.002499086 -0.39043534 -0.123001985
-0.003471405 0.0013043397 -0.011950299 -0.003016435 0.12516333 0.0049694325 0.0057390817 -0.01226294
-0.020243552 -0.025069976 0.0027021146 -0.04285959 0.014339557 -0.034910828 0.0005775657 0.14439896
-0.045397993 -0.050958678 0.18637598 0.0013410782 -0.0020495732 0.20887025 0.001556241 0.011487261
-0.43298537 0.41426367 -0.66481125 -0.037482094 0.034857415 0.68375874 -0.24099006 -0.059636347
0.123930134 -0.12380064 0.08726946 -0.024534551 -0.260923 -0.14980552 0.0033644126 0.070069514
-0.049997617 0.040790692 0.030030867 0.6027351 0.0043414943 0.027720088 0.1089232 0.3626821
-0.016337512 0.008889042 -0.039111923 0.022062212 -0.008292037 0.047411665 -0.026904913 -0.076699056
0.099091604 -0.108286604 0.06001082 0.002767505 0.06662757 -0.06362952 0.06387983 0.02182255
0.023130324 0.01851056 0.01872221 0.0041914317 -0.2783673 -0.034462653 0.032721624 0.016471388
0.005220391 -0.04002434 -0.035270255 0.2272965 0.016613577 -0.025238318 -0.009813588 0.019231003
-0.27348718 -0.1461483 0.036567833 -0.0014064397 3.6509296e-05 -0.098426655 -0.011327447 -0.035907965
-0.057209827 0.008184839 0.036835313 0.10868795 0.016319895 0.06265132 0.08528698 0.13884003
-0.13790813 -0.20291471 -0.045099616 0.0034309481 0.0070648766 -0.054357618 -0.0021851081 -0.010420246
-0.22775581 0.24120112 -0.3380989 0.16346759 -0.31764525 0.37988445 -0.114361174 -0.23752055
0.13822643 0.020651508 0.15777098 0.013772998 -0.5260083 -0.12730095 -0.2886745 0.032375716
00000000: b7f4 06bc 89ec 713c 635d c03d abef 6b37
00000010: d9ef 04bb 9823 c03d b136 2a3c 44c5 c33b
00000020: f00b 5d3d 16c0 06bd 55d0 013d 4914 c03d
00000030: 5dfc b43c 68f2 633e 8e29 cc3e 1f55 033c
00000040: c9b6 2cbe e962 4a3e b84b c9be de02 b4bd
00000050: 6b65 9b3e 71ff e43e 5672 debd 3304 48bc
00000060: 02c2 f6bc e3e8 b7bc 8eac 153e 0b2a 80bf
00000070: ba9b 27bc 2b66 1a3e 392e 6e3d ccc2 4abf
00000080: a925 48bd deb9 0c3d bc6f 4abd fb51 b8bc
00000090: b892 babe b933 8b3d 3913 2f3d d476 973c
000000a0: 9676 5dbd 223b c23c a2c6 1dbd 8847 603a
000000b0: d089 4aba fc7d 3ebd de63 e3bd 3021 183d
000000c0: b097 7a3e d165 86be 3e65 693e d010 493c
000000d0: e43d c43d aba7 d5bc 2d7e b2be 6cdb c13c
000000e0: ad98 833e cc1e 9abe 9fa1 243f 3d53 ba3d
000000f0: 08d3 c7be 5f5c 1fbf 1add 533e ce57 7d3d
00000100: 8fd7 fabc 355a 323c 96f2 a93d dae4 363b
00000110: 662a 99ba 6700 8c3d 43df 053c ea12 063a
00000120: cb3c 93bd c770 9c3d 535f ef3c d8d1 a3bd
00000130: 220c c9ba 9f17 01be b25e 33be dea1 933d
00000140: 9a44 783e 4c40 75be 8700 413e 279f 8b3c
00000150: 85ca 9a3d caf5 4cbd 7456 bbbe c286 ab3c
00000160: a85d d9bd 76af f93d 3576 f1bd c19e ce3c
00000170: 3a30 e03d 0727 833b 1f84 3a3d 4d5d aebd
00000180: 11e0 e63a 43c0 673d 52f3 0b3d 093c e73b
00000190: 4630 88bb 7f67 6cbc 5c38 0fbe 0673 92ba
000001a0: 7ac5 be3e 7efe bcbe 8a3c f23e fe18 d53c
000001b0: 5e88 9a3e 2e8a a4be 631e e63d facc 15be
000001c0: e7c0 18bd afbd 1fbd ff0e 2e3b 63ab 9f3e
000001d0: e464 1c3d d52f 14bd 2899 8b3c d441 123e
000001e0: bfb2 0f3e f93b 32be 86c4 923e d940 65be
000001f0: 94c0 1b3e a137 a4be e2a8 033e 4539 193f
00000200: da82 b73c d760 833d f347 b23c 1f80 3f3c
00000210: 46dd bcbc b5c7 233b 24e7 c7be 77e8 fbbd
00000220: 8380 63bb 61f6 aa3a 30cb 43bc 62af 45bb
00000230: d12a 003e 9fd6 a23b e80e bc3b 80ea 48bc
00000240: ced5 a5bc 8d5f cdbc f615 313b 8a8d 2fbd
00000250: 76f0 6a3c a8fe 0ebd c767 173a 52dd 133e
00000260: 3ff3 39bd 0cba 50bd 58d9 3e3e 1ec7 af3a
00000270: 2252 06bb 15e2 553e c8fa cb3a 1135 3c3c
00000280: 42b0 ddbe 5e1a d43e 1231 2abf d386 19bd
00000290: a6c6 0e3d d00a 2f3f 19c6 76be 3e45 74bd
000002a0: 15cf fd3d 318b fdbd 55ba b23d affc c8bc
000002b0: b397 85be 9e66 19be 7a7d 5c3b 9b80 8f3d
000002c0: 4dca 4cbd 2414 273d 4b03 f63c d94c 1a3f
000002d0: 1843 8e3b 3d15 e33c 2013 df3d 78b1 b93e
000002e0: 3fd6 85bc 58a3 113c d333 20bd d0bb b43c
000002f0: 53db 07bc bc32 423d b167 dcbc 6514 9dbd
00000300: 8af0 ca3d 5ec5 ddbd e8cd 753d 075f 353b
00000310: 0974 883d 3250 82bd 6ed3 823d 34c5 b23c
00000320: ce7b bd3c 75a3 973c 525f 993c 4758 893b
00000330: 2986 8ebe b628 0dbd 1c07 063d 01ef 863c
00000340: d00f ab3b 90f0 23bd 8b77 10bd 6ac0 683e
00000350: 3219 883c 97c0 cebc 2cc9 20bc 568a 9d3c
00000360: 8306 8cbe e6a7 15be 27c8 153d 4958 b8ba
00000370: 8f21 1938 ea93 c9bd c296 39bc 3b14 13bd
00000380: da54 6abd b419 063c a0e0 163d ca97 de3d
00000390: 4db1 853c 564f 803d f1aa ae3d 152c 0e3e
000003a0: ca37 0dbe e0c8 4fbe 60ba 38bd c2d9 603b
000003b0: 7b80 e73b 18a6 5ebd 0834 0fbb aeb9 2abc
000003c0: d238 69be 6dfd 763e 4d1b adbe 0c64 273e
000003d0: 66a2 a2be 3780 c23e 3136 eabd 9638 73be
000003e0: 3b8b 0d3e 5a2d a93c b78e 213e 24a8 613c
000003f0: 7ba8 06bf 2e5b 02be 25cd 93be 669c 043d

MobilenetV2/expanded_conv_1/project/Conv2D_bias f4 [16]
17.94293 9.111922 -0.018907713 -18.03827 -6.98812 7.188037 5.4982224 -6.994172
-15.32842 -22.668037 -9.619136 -12.181323 15.0499115 -6.829026 1.8120685 8.20852
00000000: 1f8b 8f41 6fca 1141 59e4 9abc 614e 90c1
00000010: ae9e dfc0 6604 e640 70f1 af40 42d0 dfc0
00000020: 3541 75c1 2458 b5c1 fbe7 19c1 b3e6 42c1
00000030: 70cc 7041 6287 dac0 dcf1 e73f 1956 0341

MobilenetV2/expanded_conv_1/project/weights f4 [16, 1, 1, 48]
0.23103902 0.019796988 -0.11523747 0.19920322 0.087174766 -0.07750125 0.006246718 0.38475975
0.15475988 -0.12539239 0.0299117 -0.30267888 0.044516146 0.32059607 0.14799373 -0.46540868
-0.015013497 -0.06329459 -0.62245893 -0.09986149 -0.10544679 0.038859174 0.3458793 -0.5683094
0.69760317 0.023540184 -0.20214213 -2.5539267 0.0975374 0.13786083 -0.32243907 0.240453
0.7094636 -2.2710984 0.80201507 0.104640454 -0.103358105 0.024168983 -0.87576896 -0.68824697
0.9911536 -0.006542049 -0.8041493 0.14008608 0.08305581 0.576569 -0.059339993 0.4618774
1.7734511 -0.5778613 -1.7595571 -0.54552585 0.38781592 0.29671437 -0.5844393 -1.1833813
-0.21016228 -1.2166991 -0.5680945 -0.5060988 -0.37847158 -2.028089 -1.0149996 0.4195746
-0.43025595 -0.671141 0.48336077 0.04792227 -1.6571038 -0.08237644 -0.6740138 0.104857594
0.18246184 -0.47081435 0.76125765 0.12675467 -0.79355544 1.190278 -1.2605982 -0.30159372
-0.6576829 0.8310981 -1.6135267 0.01571543 -1.6090844 -0.23331375 -0.8416214 -1.3661141
-0.59582865 0.20766468 -0.11758556 -0.9915462 -1.2236186 0.6902083 -0.2356137 -0.3521524
0.69757617 -1.0820638 0.8044164 -0.29812753 -1.4698818 -1.8785443 1.1238089 -0.00024515466
0.36746866 -1.6642455 1.1779991 -0.05830284 0.003650146 0.8626356 -0.41876823 -0.31179616
-1.011519 1.6933823 0.46622133 -0.32550338 0.44786924 1.1099865 -0.925958 -0.16172121
0.5803103 0.7815892 -0.46890908 0.21910581 -1.2217622 0.7722631 0.20965284 0.5793632
0.24181513 0.32886147 1.4705123 -0.40409854 -0.0706788 -0.003745798 1.689953 1.0867095
-0.82292366 -1.5265673 -2.5658262 -1.1079595 -0.8464448 -1.5941986 -0.6800117 -0.37814736
-0.49413294 0.1126904 -0.15153801 0.16980898 0.027785221 0.27202168 -0.18084815 -0.08602961
4.1668706 -0.07909227 -0.022886975 -0.6280382 -0.27583164 -0.05244643 -0.14877361 -0.49939555
0.0151930535 -0.012290213 -0.43479273 3.181921 -0.17991035 0.22548856 0.12116599 -0.38173485
0.74791735 -0.032155022 0.056796703 0.70198214 0.04261773 -0.88059616 -0.15739702 0.028901523
0.8017031 2.120379 0.30110598 0.24034606 -0.103554666 -0.10078458 -0.32107824 -0.41351804
0.64005977 0.15384594 -0.0848961 -0.029131401 0.03997121 -0.030188417 -0.17342933 0.1595963
0.6745411 0.4807894 2.1603267 0.8666925 -0.9993896 1.2578248 0.36747012 -0.2709864
0.4515665 1.1404932 0.7925734 -0.7192475 -0.12595224 0.81531626 0.42335194 -1.2957315
1.5920469 1.8820182 -3.4817483 -0.41039538 -0.1482714 0.17323549 1.332986 0.15816161
-0.31512484 1.34573 -0.76027036 1.4609027 1.0310616 2.4057195 -0.57389957 0.7199061
-0.07812912 0.57758063 0.35763338 -0.06928175 2.8933454 0.6567084 -0.031115947 0.31716353
-0.71063775 1.096679 1.3945695 0.9347422 0.6083896 -3.0899372 -0.29641068 -0.0719731
0.02494895 0.14256972 -1.5830349 -0.023376143 -0.11490713 0.010377297 0.29618865 1.1146501
-0.30984616 0.24668735 0.19322456 -0.05806809 -4.0856957 1.3608587 -0.06385076 1.5138806
00000000: 7e95 6c3e 4b2d a23c 9f01 ecbd eefb 4b3e
00000010: af88 b23d fab8 9ebd 45b1 cc3b 3bff c43e
00000020: 6079 1e3e dd66 00be 6209 f53c baf8 9abe
00000030: 9056 363d 2b25 a43e ab8b 173e 0c4a eebe
00000040: 2cfb 75bc 98a0 81bd 7859 1fbf 2e84 ccbd
00000050: 7df4 d7bd cc2a 1f3d 1717 b13e ba7c 11bf
00000060: 1f96 323f 58d7 c03c 59fe 4ebe 8973 23c0
00000070: b0c1 c73d 642b 0d3e bc16 a5be 5039 763e
00000080: 689f 353f ad59 11c0 dc50 4d3f bc4d d63d
00000090: 6aad d3bd 08fe c53c 6532 60bf f430 30bf
000000a0: 3ebc 7d3f af5e d6bb bbdc 4dbf ba72 0f3e
000000b0: 2a19 aa3d 079a 133f 7e0e 73bd 327b ec3e
000000c0: 7200 e33f b8ee 13bf 2b39 e1bf 95a7 0bbf
000000d0: cf8f c63e f2ea 973e d09d 15bf 0a79 97bf
000000e0: c834 57be ccbc 9bbf a46e 11bf b18f 01bf
000000f0: 07c7 c1be 36cc 01c0 82eb 81bf 7bd2 d63e
00000100: 824a dcbe e6cf 2bbf 107b f73e 244a 443d
00000110: fa1b d4bf fbb4 a8bd 2b8c 2cbf 94bf d63d
00000120: 47d7 3a3e 940e f1be c8e1 423f facb 013e
00000130: 7326 4bbf 085b 983f 485b a1bf 7e6a 9abe
00000140: e85d 28bf d8c2 543f 0b88 cebf a5bd 803c
00000150: 7af6 cdbf cde9 6ebe 8074 57bf d4dc aebf
00000160: 3a88 18bf 0da6 543e b3d0 f0bd f9d5 7dbf
00000170: 899f 9cbf 7eb1 303f b844 71be 524d b4be
00000180: 5a94 323f 1181 8abf 3cee 4d3f 2ca4 98be
00000190: 1625 bcbf 2474 f0bf f8d8 8f3f 1a88 80b9
000001a0: da24 bc3e ff05 d5bf adc8 963f f5ce 6ebd
000001b0: 4a37 6f3b b0d5 5c3f ca68 d6be bfa3 9fbe
000001c0: 7479 81bf c0c0 d83f 90b4 ee3e 61a8 a6be
000001d0: 1e4f e53e 0a14 8e3f 950b 6dbf 3f9a 25be
000001e0: 378f 143f 3b16 483f da14 f0be 465d 603e
000001f0: b462 9cbf 09b3 453f 3caf 563e 2651 143f
00000200: 639e 773e 8860 a83e bf39 bc3f 01e6 cebe
00000210: 0cc0 90bd 107c 75bb 6150 d83f 4c19 8b3f
00000220: 20ab 52bf 8f66 c3bf 7f36 24c0 9ed1 8dbf
00000230: 9bb0 58bf b30e ccbf 3f15 2ebf 889c c1be
00000240: fefe fcbe 39ca e63d c82c 1bbe 68e2 2d3e
00000250: d59d e33c 6d46 8b3e 4230 39be 4b30 b0bd
00000260: 0157 8540 21fb a1bd 777d bbbc 1dc7 20bf
00000270: ce39 8dbe 11d2 56bd 1c58 18be c6b0 ffbe
00000280: 49ec 783c e45c 49bc 279d debe 98a4 4b40
00000290: 6b3a 38be 79e6 663e e025 f83d c072 c3be
000002a0: 8377 3f3f fcb4 03bd a9a3 683d 1ab5 333f
000002b0: ee8f 2e3d c06e 61bf af2c 21be e3c2 ec3c
000002c0: 6a3c 4d3f 4ab4 0740 902a 9a3e 471d 763e
000002d0: 7814 d4bd 2568 cebd 5e64 a4be a3b8 d3be
000002e0: f5da 233f ca89 1d3e 02de adbd faa4 eebc
000002f0: dab8 233d b34d f7bc 7597 31be 366d 233e
00000300: baae 2c3f 072a f63e cb42 0a40 8fdf 5d3f
00000310: ffd7 7fbf 6700 a13f 0b25 bc3e bbbe 8abe
00000320: b933 e73e aefb 913f 17e6 4a3f 9b20 38bf
00000330: a0f9 00be 91b8 503f 96c1 d83e 88da a5bf
00000340: 31c8 cb3f f9e5 f03f f7d4 5ec0 581f d2be
00000350: 75d4 17be a564 313e 499f aa3f 1ef5 213e
00000360: 0b58 a1be e140 ac3f 14a1 42bf dcfe ba3f
00000370: d4f9 833f 4ff7 1940 15eb 12bf c44b 383f
00000380: 2902 a0bd 53dc 133f b91b b73e 97e3 8dbd
00000390: 922c 3940 0b1e 283f dfe6 febc 4263 a23e
000003a0: 5bec 35bf fa5f 8c3f 4181 b23f 444b 6f3f
000003b0: 6cbf 1b3f 88c1 45c0 24c3 97be a266 93bd
000003c0: be61 cc3c ccfd 113e e3a0 cabf 537f bfbc
000003d0: 6e54 ebbd 8a05 2a3c 0aa6 973e dbac 8e3f
000003e0: 28a4 9ebe 9c9b 7c3e a9dc 453e ced8 6dbd
000003f0: 05be 82c0 9e30 ae3f 30c4 82bd d7c6 c13f

MobilenetV2/expanded_conv_10/depthwise/depthwise_bias f4 [192]
0.030960143 4.025688 4.2469335 0.6494645 1.6998351 7.510623 -0.47535476 1.6429884
-1.5315921 1.5066338 1.3392054 -3.0405836 1.8554229 2.960475 5.2017975 1.1868892
3.747359 0.43768367 0.84084576 3.3601363 -7.0530767 1.3947028 0.30665535 -1.0458707
0.5031586 2.653246 -0.50540817 0.17967165 1.5591855 -1.3677163 -1.2254488 1.5230784
-1.9309163 2.0362492 -0.90399534 4.9803877 0.4586153 2.8420677 2.366896 1.9765955
2.0421865 1.6874933 0.61067474 0.011563599 1.8211634 1.541183 -0.36753625 0.10539666
-0.49401972 -0.5225503 -0.12679733 -0.106609344 -1.4177777 2.921845 -1.3949189 -0.3413287
0.9334984 0.58550525 0.7062006 0.057443023 0.26933804 -1.1684431 0.8210162 0.32115138
2.8536394 0.14501466 -2.407903 2.567974 -2.3786898 -1.6291174 1.1357241 5.106607
-1.4098084 2.1678133 5.9456644 -1.4207838 -0.52201796 1.3457403 -0.6946006 5.2513647
3.239703 0.16633767 -0.5180392 0.07671702 3.7320433 0.5752339 -0.78739536 1.7070463
1.6710565 -1.8214705 1.6782186 4.699454 -2.7976792 -1.1396557 1.9180691 0.08424491
2.6835976 0.8606931 0.2049866 0.8753837 2.294219 -2.7174692 1.1754317 -0.28632256
2.166933 1.3628004 2.3540306 3.0378194 3.2868698 1.2125013 -0.5289178 1.1170523
-0.19620413 1.3994694 1.1825004 -0.027585804 0.5886049 2.7420664 1.9201659 0.063400224
0.9398915 0.2377826 0.20773381 2.237506 0.7097566 0.1191428 1.652437 -3.681707
-0.44838625 0.57596576 0.5767089 -2.1776981 2.2273996 6.304214 3.1191516 0.09589106
2.5514498 -0.012915373 -2.7653632 1.1242492 0.7008375 -2.5761197 0.12944764 4.3985295
1.4415987 -0.8905642 -0.0005815029 0.028826654 1.1395814 1.5925423 1.2104393 -1.1565465
0.29606244 2.915404 0.8807573 1.3336847 -0.8317313 3.4694297 1.5834017 1.124326
5.1875715 1.390509 -0.47552985 -1.1881788 -0.16853455 2.0933619 0.07848343 -0.6904793
-0.81025076 -0.1537644 -0.0066554695 1.0982497 6.1377897 0.1991651 -0.6169395 -2.0915349
0.44230366 0.3300403 4.467205 5.886441 3.289943 1.7895832 1.6173621 -0.5738443
-1.7001822 -0.53358316 1.2029126 3.3240082 0.18708898 -5.059831 -0.19043571 -0.45332867
00000000: 20a0 fd3c 70d2 8040 e1e6 8740 4e43 263f
00000010: 3294 d93f 0657 f040 b361 f3be 724d d23f
00000020: 360b c4bf 60d9 c03f 156b ab3f ec98 42c0
00000030: 7f7e ed3f 6c78 3d40 2075 a640 fceb 973f
00000040: bbd4 6f40 1318 e03e ab41 573f 790c 5740
00000050: ceb2 e1c0 9f85 b23f ee01 9d3e 17df 85bf
00000060: 01cf 003f c8ce 2940 6e62 01bf d8fb 373e
00000070: 6493 c73f 5411 afbf 82db 9cbf 3cf4 c23f
00000080: 4428 f7bf e851 0240 3d6c 67bf 565f 9f40
00000090: a0cf ea3e 70e4 3540 397b 1740 1501 fd3f
000000a0: 2fb3 0240 c8ff d73f 2e55 1c3f 4075 3d3c
000000b0: e21b e93f 7c45 c53f b62d bcbe 34da d73d
000000c0: 27f0 fcbe dbc5 05bf 29d7 01be 0056 dabd
000000d0: bd79 b5bf 82ff 3a40 b48c b2bf a3c2 aebe
000000e0: c0f9 6e3f ace3 153f 90c9 343f 6049 6b3d
000000f0: ade6 893e 8b8f 95bf 1e2e 523f f46d a43e
00000100: 07a2 3640 b97e 143e 151b 1ac0 b059 2440
00000110: 743c 18c0 eb86 d0bf 685f 913f 5369 a340
00000120: 9a74 b4bf 74bd 0a40 e242 be40 3edc b5bf
00000130: f8a2 05bf 3841 ac3f 58d1 31bf 2e0b a840
00000140: 4b57 4f40 6c54 2a3e 389e 04bf d01d 9d3d
00000150: ccd9 6e40 8742 133f be92 49bf 7e80 da3f
00000160: 2ee5 d53f f225 e9bf decf d63f ed61 9640
00000170: 2d0d 33c0 3de0 91bf 4a83 f53f 9888 ac3d
00000180: 10c0 2b40 6256 5c3f 02e8 513e 2519 603f
00000190: 7cd4 1240 04eb 2dc0 8c74 963f df98 92be
000001a0: 08af 0a40 3e70 ae3f 70a8 1640 a26b 4240
000001b0: 135c 5240 3e33 9b3f 2867 07bf 92fb 8e3f
000001c0: bce9 48be d021 b33f 2c5c 973f a0fb e1bc
000001d0: d0ae 163f 047e 2f40 ffc7 f53f fad7 813d
000001e0: bb9c 703f 487d 733e 2cb8 543e 4c33 0f40
000001f0: 9cb2 353f 2401 f43d 0e83 d33f 16a1 6bc0
00000200: e292 e5be 7e72 133f 32a3 133f 685f 0bc0
00000210: b78d 0e40 1fbc c940 2ea0 4740 8862 c43d
00000220: f44a 2340 009b 53bc b6fb 30c0 66e7 8f3f
00000230: 166a 333f 25df 24c0 ec8d 043e c1c0 8c40
00000240: 4e86 b83f 04fc 63bf 0070 18ba e025 ec3c
00000250: cedd 913f 6dd8 cb3f adef 9a3f b709 94bf
00000260: 7f95 973e fb95 3a40 4f79 613f 2eb6 aa3f
00000270: 58ec 54bf 230b 5e40 e8ac ca3f eae9 8f3f
00000280: 9600 a640 33fc b13f a678 f3be 3e16 98bf
00000290: 5294 2cbe a4f9 0540 ecbb a03d 40c3 30bf
000002a0: 986c 4fbf 6a74 1dbe 2016 dabb 7293 8c3f
000002b0: c668 c440 f0f1 4b3e bfef 1dbf b5db 05c0
000002c0: a075 e23e 0bfb a83e 58f3 8e40 ba5d bc40
000002d0: 6d8e 5240 1011 e53f b905 cf3f 76e7 12bf
000002e0: 929f d9bf e898 08bf 0af9 993f 8dbc 5440
000002f0: 4194 3f3e 23ea a1c0 9401 43be b21a e8be

MobilenetV2/expanded_conv_10/depthwise/depthwise_weights i1 [1, 3, 3, 192] scale=0.028423889 zero_point=0
0.36951056 0.056847777 -0.056847777 -0.19896722 -0.17054333 0.113695554 0.28423887 0.085271664
-0.113695554 -0.085271664 -0.085271664 -0.056847777 -0.14211944 -0.31266278 0.113695554 -0.028423889
-0.085271664 0.14211944 -0.14211944 -0.056847777 -0.28423887 -0.056847777 0.45478222 0.8242928
0.34108666 -0.14211944 0.113695554 -0.056847777 -0.17054333 0.22739111 0.14211944 0.0
-0.19896722 -0.113695554 0.113695554 0.0 0.056847777 -0.028423889 0.0 0.14211944
-0.056847777 -0.113695554 -0.028423889 0.45478222 -0.113695554 -0.085271664 0.51163 0.45478222
-0.36951056 0.113695554 0.17054333 0.14211944 -0.028423889 -0.59690166 -0.113695554 0.14211944
-0.085271664 -0.34108666 0.42635834 0.085271664 0.31266278 0.113695554 -0.113695554 0.0
-0.056847777 0.085271664 0.056847777 -0.14211944 0.36951056 0.028423889 -0.14211944 -0.056847777
-0.085271664 -0.14211944 0.085271664 -0.056847777 0.4832061 0.0 -0.085271664 -0.17054333
0.19896722 0.085271664 0.028423889 0.113695554 -0.22739111 0.085271664 0.085271664 -0.085271664
-0.6821733 0.056847777 -0.028423889 -0.056847777 0.085271664 0.19896722 0.17054333 -0.17054333
-0.14211944 -0.028423889 0.056847777 -0.028423889 -0.085271664 -0.255815 0.085271664 0.19896722
-0.17054333 -0.056847777 0.0 0.0 -0.39793444 0.056847777 0.056847777 0.39793444
0.19896722 -0.056847777 -0.22739111 0.14211944 -0.056847777 0.113695554 -0.085271664 -0.14211944
0.056847777 0.113695554 0.39793444 -0.34108666 -0.085271664 0.22739111 0.056847777 0.085271664
-0.028423889 -0.14211944 0.31266278 -0.17054333 -0.085271664 0.085271664 -0.42635834 0.14211944
-0.085271664 0.056847777 0.39793444 -0.17054333 -0.28423887 0.22739111 0.113695554 0.14211944
0.085271664 0.17054333 0.17054333 0.42635834 -0.255815 -0.113695554 -0.085271664 0.5400539
-0.028423889 -1.0516839 0.31266278 0.36951056 0.113695554 -0.56847775 0.7958689 -0.085271664
0.056847777 -0.113695554 0.085271664 0.22739111 0.34108666 -0.113695554 0.19896722 0.19896722
0.22739111 0.056847777 -0.085271664 0.4832061 -0.8242928 0.056847777 0.14211944 -0.085271664
0.085271664 0.19896722 0.028423889 0.22739111 -0.113695554 -0.085271664 -0.056847777 0.113695554
-0.085271664 0.17054333 0.085271664 -0.085271664 -1.7054334 -0.255815 0.14211944 0.42635834
-0.36951056 -0.42635834 -0.45478222 -0.28423887 -0.113695554 -0.59690166 0.113695554 -1.1085317
-0.34108666 0.17054333 -0.113695554 -1.0516839 -0.255815 0.028423889 -0.31266278 0.19896722
-0.085271664 0.17054333 -0.7105972 0.085271664 0.34108666 0.0 0.6821733 2.9845083
1.4496183 -0.255815 0.34108666 -0.085271664 -0.17054333 0.19896722 0.42635834 0.31266278
-0.028423889 -0.255815 0.42635834 -0.028423889 0.17054333 -0.255815 -0.113695554 0.17054333
-0.113695554 -0.113695554 0.028423889 0.62532556 -0.14211944 -0.056847777 2.3591828 0.31266278
0.34108666 0.028423889 0.31266278 0.34108666 0.085271664 -1.3927705 -0.6821733 0.34108666
-0.14211944 0.085271664 -0.255815 1.3927705 1.1085317 0.22739111 -0.085271664 0.14211944
00000000: 0d02 fef9 fa04 0a03 fcfd fdfe fbf5 04ff
00000010: fd05 fbfe f6fe 101d 0cfb 04fe fa08 0500
00000020: f9fc 0400 02ff 0005 fefc ff10 fcfd 1210
00000030: f304 0605 ffeb fc05 fdf4 0f03 0b04 fc00
00000040: fe03 02fb 0d01 fbfe fdfb 03fe 1100 fdfa
00000050: 0703 0104 f803 03fd e802 fffe 0307 06fa
00000060: fbff 02ff fdf7 0307 fafe 0000 f202 020e
00000070: 07fe f805 fe04 fdfb 0204 0ef4 fd08 0203
00000080: fffb 0bfa fd03 f105 fd02 0efa f608 0405
00000090: 0306 060f f7fc fd13 ffdb 0b0d 04ec 1cfd
000000a0: 02fc 0308 0cfc 0707 0802 fd11 e302 05fd
000000b0: 0307 0108 fcfd fe04 fd06 03fd c4f7 050f
000000c0: f3f1 f0f6 fceb 04d9 f406 fcdb f701 f507
000000d0: fd06 e703 0c00 1869 33f7 0cfd fa07 0f0b
000000e0: fff7 0fff 06f7 fc06 fcfc 0116 fbfe 530b
000000f0: 0c01 0b0c 03cf e80c fb03 f731 2708 fd05

MobilenetV2/expanded_conv_10/expand/Conv2D_bias f4 [192]
2.007811 2.4300153 2.3817306 1.6974612 1.2490429 2.046561 0.37453857 2.1845882
0.4055905 0.030770116 0.95428294 1.5328414 0.16519292 -0.81875217 2.4088228 2.4032218
1.9750645 0.12598015 1.5898052 -0.64242387 2.2088177 1.1641933 -1.086837 1.03252
2.2509463 1.8812361 -0.5288638 1.4507667 1.540555 0.2265122 0.4908571 1.8689853
1.12799 1.6804023 -0.55800873 1.2116678 1.3324269 1.9469568 1.5103916 1.2270577
1.7202722 0.28766248 1.734976 -0.34228837 1.1275022 1.1720154 2.1130686 -0.7752285
0.21840304 -1.9028099 -0.41072997 -0.31892568 1.473071 -0.95548254 1.1435611 -0.2407729
0.28672475 1.5307341 1.9278361 1.6093332 2.6628623 0.6562786 0.33974037 -0.45772758
1.909989 -0.12085488 1.513158 1.718124 0.59730077 1.5285392 0.7530916 2.5328283
-0.16458073 1.6201719 2.0708873 1.542822 -1.6524268 1.4377593 1.7482717 1.9624768
1.1450592 -0.21835232 0.137533 -0.040070157 1.6825826 1.2008251 1.5968192 1.6411344
1.2701936 1.4547542 0.28065267 1.2803676 0.66679853 1.011282 0.119355544 1.689329
1.9304088 0.17835239 0.9478488 1.4685036 -0.18157233 1.5583026 0.9083927 -0.10804462
1.2197883 0.6895448 -0.64968795 1.5369366 -0.43532753 2.3312783 0.59957695 2.4498374
2.0528305 1.3094345 0.10075354 -1.4526093 0.13635428 0.7666462 1.9623395 1.423174
1.3115414 -0.2148037 0.17969947 -0.62826204 0.13203983 2.1325297 -0.7048773 1.7098945
1.0934385 0.31192958 2.5512488 1.5043389 1.9917045 3.9205098 0.8946349 0.40617317
-1.0550816 -0.61174756 1.3226316 0.1423896 2.506288 1.5936314 0.6954152 2.759596
0.7561941 -0.86366385 -0.5754135 -1.5780476 2.8120348 0.99707425 1.0410334 0.11934953
0.26909736 1.8832248 2.6580954 -1.1791654 -0.53440833 -0.63537604 1.6094171 2.5993037
2.2797203 0.022064805 -1.6656107 -0.46175593 2.078571 1.2572919 -0.8701329 0.29152563
-0.31140712 -0.63486326 -1.2407802 2.0025246 1.7247738 -0.5207439 -0.31451377 1.2345818
1.7926527 -0.85110533 0.7642225 2.0082507 1.9903363 1.3146026 0.3829784 -0.9777827
1.1482831 -1.8203108 0.59440225 0.80561936 -1.4392878 1.9342575 -0.8542443 -1.3086915
00000000: fa7f 0040 5f85 1b40 466e 1840 6946 d93f
00000010: a3e0 9f3f dbfa 0240 85c3 bf3e 4bd0 0b40
00000020: 8fa9 cf3e 9c11 fc3c e34b 743f 2634 c43f
00000030: 5528 293e be99 51bf 272a 1a40 63ce 1940
00000040: eace fc3f f100 013e bd7e cb3f e475 24bf
00000050: 455d 0d40 4904 953f 7a1d 8bbf 9e29 843f
00000060: 810f 1040 58cc f03f 9e63 07bf b9b2 b93f
00000070: e830 c53f d0f2 673e 9f51 fb3e e93a ef3f
00000080: fa61 903f 6c17 d73f a9d9 0ebf ee17 9b3f
00000090: f78c aa3f e135 f93f 8354 c13f 3a10 9d3f
000000a0: e131 dc3f 7f48 933e b213 de3f 6c40 afbe
000000b0: fe51 903f 9a04 963f 843c 0740 6075 46bf
000000c0: 0ca5 5f3e 468f f3bf 334b d2be 3a4a a3be
000000d0: 978d bc3f 819a 74bf 3660 923f 2c8d 76be
000000e0: 96cd 923e 18ef c33f 55c3 f63f a1fe cd3f
000000f0: 566c 2a40 e001 283f 73f2 ad3e 455b eabe
00000100: 857a f43f c382 f7bd 29af c13f 7deb db3f
00000110: b4e8 183f 2ca7 c33f 9cca 403f dc19 2240
00000120: da87 28be cb61 cf3f 6b89 0440 317b c53f
00000130: b982 d3bf 7f08 b83f 5ec7 df3f 7132 fb3f
00000140: 4d91 923f c097 5fbe 73d5 0c3e 9b20 24bd
00000150: de5e d73f a3b4 993f 9264 cc3f b110 d23f
00000160: b495 a23f 6335 ba3f b5b1 8f3e 16e3 a33f
00000170: 4fb3 2a3f b071 813f ae70 f43d ef3b d83f
00000180: a317 f73f 02a2 363e 38a6 723f edf7 bb3f
00000190: 19ee 39be 7676 c73f 6d8c 683f 7f46 ddbd
000001a0: 0622 9c3f 0286 303f f351 26bf 57ba c43f
000001b0: 40e3 debe aa33 1540 e07d 193f 23ca 1c40
000001c0: 9361 0340 8d9b a73f df57 ce3d 1aef b9bf
000001d0: 75a0 0b3e ed42 443f f12d fb3f 912a b63f
000001e0: 97e0 a73f 80f5 5bbe 2303 383e c8d5 20bf
000001f0: 7335 073e 5e7b 0840 d772 34bf d3dd da3f
00000200: cbf5 8b3f 3cb5 9f3e a947 2340 2d8e c03f
00000210: 2cf0 fe3f a2e9 7a40 cb06 653f eef5 cf3e
00000220: ea0c 87bf 7d9b 1cbf fe4b a93f 94ce 113e
00000230: 0667 2040 1dfc cb3f bb06 323f 399d 3040
00000240: f095 413f 1319 5dbf 4d4e 13bf 77fd c9bf
00000250: 61f8 3340 4240 7f3f 9540 853f 876d f43d
00000260: 21c7 893e 830d f13f 3c1e 2a40 e4ee 96bf
00000270: fcce 08bf 01a8 22bf 6101 ce3f fe5a 2640
00000280: f0e6 1140 40c1 b43c bb32 d5bf 466b ecbe
00000290: 4f07 0540 f1ee a03f 08c1 5ebf d942 953e
000002a0: c170 9fbe 6686 22bf e3d1 9ebf 5d29 0040
000002b0: 63c5 dc3f 794f 05bf f307 a1be c706 9e3f
000002c0: a575 e53f 0ae2 59bf 16a4 433f 2e87 0040
000002d0: 57c3 fe3f e644 a83f bf15 c43e f84f 7abf
000002e0: f1fa 923f f2ff e8bf bf2a 183f 123d 4e3f
000002f0: 953a b8bf c095 f73f c1af 5abf 3483 a7bf
